…
    "text": "Teacher Model: Qwen2.5-Coder-0.5B-Instruct\n\nfrom transformers import AutoTokenizer, AutoModelForCausalLM\nlocal_files_only = False\n# Load tokenizer first (lightweight)\nmodel_name = \"Qwen/Qwen2.5-Coder-0.5B-Instruct\"\ntokenizer = AutoTokenizer.from_pretrained(\n    model_name,\n    local_files_only=local_files_only\n    )\nteacher_model = AutoModelForCausalLM.from_pretrained(\n    model_name,\n    dtype =  dtype,\n    device_map =  \"cpu\",\n    low_cpu_mem_usage = True,\n    trust_remote_code = True,\n    local_files_only=local_files_only\n)\nteacher_model\n\n\n\n\n\n\n\n\n\n\n\n\n\n\n\n\n\n\n\n\n\n\nQwen2ForCausalLM(\n  (model): Qwen2Model(\n    (embed_tokens): Embedding(151936, 896)\n    (layers): ModuleList(\n      (0-23): 24 x Qwen2DecoderLayer(\n        (self_attn): Qwen2Attention(\n          (q_proj): Linear(in_features=896, out_features=896, bias=True)\n          (k_proj): Linear(in_features=896, out_features=128, bias=True)\n          (v_proj): Linear(in_features=896, out_features=128, bias=True)\n          (o_proj): Linear(in_features=896, out_features=896, bias=False)\n        )\n        (mlp): Qwen2MLP(\n          (gate_proj): Linear(in_features=896, out_features=4864, bias=False)\n          (up_proj): Linear(in_features=896, out_features=4864, bias=False)\n          (down_proj): Linear(in_features=4864, out_features=896, bias=False)\n          (act_fn): SiLUActivation()\n        )\n        (input_layernorm): Qwen2RMSNorm((896,), eps=1e-06)\n        (post_attention_layernorm): Qwen2RMSNorm((896,), eps=1e-06)\n      )\n    )\n    (norm): Qwen2RMSNorm((896,), eps=1e-06)\n    (rotary_emb): Qwen2RotaryEmbedding()\n  )\n  (lm_head): Linear(in_features=896, out_features=151936, bias=False)\n)\n\n\n\nlen(tokenizer.vocab)\n\n151665\n\n\n\nteacher_model.model.embed_tokens.weight in teacher_model.lm_head.weight\n\nTrue\n\n\nThe teacher model is a decoder only text to text model. It have 24 decoder block stack on top of each other. Each block uses RMS norm. The language model head lm_head which is used for generate logits from the input s
…
] += next_layer_values[k] / float(DISTIL_FACTOR)\n\n        new_state_dict = dict(zip(layer_keys, avg_layer0))\n\n        student_model.model.layers[i].load_state_dict(new_state_dict)\n\n    else:\n      for i in range(NO_HIDDEN):\n        for j in range(DISTIL_FACTOR):\n          student_model.model.layers[i].load_state_dict(\n              teacher_model.model.layers[i*DISTIL_FACTOR].state_dict())\n\n    return student_model\n\n\nstudent_model = get_student_model(teacher_model.config, fused_layers=False).to(device)\nstudent_model\n\nQwen2ForCausalLM(\n  (model): Qwen2Model(\n    (embed_tokens): Embedding(151936, 896)\n    (layers): ModuleList(\n      (0-3): 4 x Qwen2DecoderLayer(\n        (self_attn): Qwen2Attention(\n          (q_proj): Linear(in_features=896, out_features=896, bias=True)\n          (k_proj): Linear(in_features=896, out_features=128, bias=True)\n          (v_proj): Linear(in_features=896, out_features=128, bias=True)\n          (o_proj): Linear(in_features=896, out_features=896, bias=False)\n        )\n        (mlp): Qwen2MLP(\n          (gate_proj): Linear(in_features=896, out_features=4864, bias=False)\n          (up_proj): Linear(in_features=896, out_features=4864, bias=False)\n          (down_proj): Linear(in_features=4864, out_features=896, bias=False)\n          (act_fn): SiLUActivation()\n        )\n        (input_layernorm): Qwen2RMSNorm((896,), eps=1e-06)\n        (post_attention_layernorm): Qwen2RMSNorm((896,), eps=1e-06)\n      )\n    )\n    (norm): Qwen2RMSNorm((896,), eps=1e-06)\n    (rotary_emb): Qwen2RotaryEmbedding()\n  )\n  (lm_head): Linear(in_features=896, out_features=151936, bias=False)\n)",
    "crumbs": [
      "Resume",
      "🔧 Fine-Tuning",
      "CPU-Friendly Bash Generation: Distilling Qwen2.5-Coder for Local Deployment"
    ]
  },
  {
    "objectID": "distilationweightinit.html#inference-examples-before-training",
    "href": "distilationweightinit.html#inference-examples-before-training",
    "title": "CPU-Friendly Bash Generation: Distilling Qwen2.5-Coder for Local Deployment",
…
